…
-9d86-6fd0acbc6599"},"id":"kwYjLNw53O1p","execution_count":null,"outputs":[{"output_type":"execute_result","data":{"text/plain":["==================================================================================================================================\n","Layer (type (var_name))                            Input Shape          Output Shape         Param #              Trainable\n","==================================================================================================================================\n","CustomVGG16Classifier (CustomVGG16Classifier)      [16, 3, 224, 224]    [16, 4]              --                   True\n","Sequential (features)                            [16, 3, 224, 224]    [16, 512, 7, 7]      --                   True\n","    Conv2d (0)                                  [16, 3, 224, 224]    [16, 64, 224, 224]   1,792                True\n","    ReLU (1)                                    [16, 64, 224, 224]   [16, 64, 224, 224]   --                   --\n","    Conv2d (2)                                  [16, 64, 224, 224]   [16, 64, 224, 224]   36,928               True\n","    ReLU (3)                                    [16, 64, 224, 224]   [16, 64, 224, 224]   --                   --\n","    MaxPool2d (4)                               [16, 64, 224, 224]   [16, 64, 112, 112]   --                   --\n","    Conv2d (5)                                  [16, 64, 112, 112]   [16, 128, 112, 112]  73,856               True\n","    ReLU (6)                                    [16, 128, 112, 112]  [16, 128, 112, 112]  --                   --\n","    Conv2d (7)                                  [16, 128, 112, 112]  [16, 128, 112, 112]  147,584              True\n","    ReLU (8)                                    [16, 128, 112, 112]  [16, 128, 112, 112]  --                   --\n","    MaxPool2d (9)                               [16, 128, 112, 112]  [16, 128, 56, 56]    --                   --\n","    Conv2d (10)                                 [16, 128, 56, 56]    [16, 256, 56, 56]    295,168              True\n","    ReLU (11)                                   [16, 256, 56, 56]    [16, 256, 56, 56]    --                   --\n","    Conv2d (12)                                 [16, 256, 56, 56]    [16, 256, 56, 56]    590,080              True\n","    ReLU (13)                                   [16, 256, 56, 56]    [16, 256, 56, 56]    --                   --\n","    Conv2d (14)                                 [16, 256, 56, 56]    [16, 256, 56, 56]    590,080              True\n","    ReLU (15)                                   [16, 256, 56, 56]    [16, 256, 56, 56]    --                   --\n","    MaxPool2d (16)                              [16, 256, 56, 56]    [16, 256, 28, 28]    --                   --\n","    Conv2d (17)                                 [16, 256, 28, 28]    [16, 512, 28, 28]    1,180,160            True\n","    ReLU (18)                                   [16, 512, 28, 28]    [16, 512, 28, 28]    --                   --\n","    Conv2d (19)                                 [16, 512, 28, 28]    [16, 512, 28, 28]    2,359,808            True\n","    ReLU (20)                                   [16, 512, 28, 28]    [16, 512, 28, 28]    --                   --\n","    Conv2d (21)                                 [16, 512, 28, 28]    [16, 512, 28, 28]    2,359,808            True\n","    ReLU (22)                                   [16, 512, 28, 28]    [16, 512, 28, 28]    --                   --\n","    MaxPool2d (23)                              [16, 512, 28, 28]    [16, 512, 14, 14]    --                   --\n","    Conv2d (24)                                 [16, 512, 14, 14]    [16, 512, 14, 14]    2,359,808            True\n","    ReLU (25)                                   [16, 512, 14, 14]    [16, 512, 14, 14]    --                   --\n","    Conv2d (26)                                 [16, 512, 14, 14]    [16, 512, 14, 14]    2,359,808            True\n","    ReLU (27)                                   [16, 512, 14, 14]    [16, 512, 14, 14]    --                   --\n","    Conv2d (28)                                 [16, 512, 14, 14]    [16, 512, 14, 14]    2,359,808            True\n","    ReLU (29)                                   [16, 512, 14, 14]    [16, 512, 14, 14]    --                   --\n","    MaxPool2d (30)                              [16, 512, 14, 14]    [16, 512, 7, 7]      --                   --\n","Sequential (classifier)                          [16, 25088]          [16, 4]              --                   True\n","    Flatten (0)                                 [16, 25088]          [16, 25088]          --                   --\n","    Linear (1)                                  [16, 25088]          [16, 512]            12,845,568           True\n","    ReLU (2)                                    [16, 512]            [16, 512]            --                   --\n","    Dropout (3)                                 [16, 512]            [16, 512]            --                   --\n","    Linear (4)                                  [16, 512]            [16, 4]              2,052                True\n","==================================================================================================================================\n","Total params: 27,562,308\n","Trainable params: 27,562,308\n","Non-trainable params: 0\n","Total mult-adds (G): 245.97\n","======================================================================================================================
…
